…
  "finetuning_task": null,
  "hidden_act": "gelu",
  "hidden_dropout_prob": 0.1,
  "hidden_size": 768,
  "initializer_range": 0.02,
  "intermediate_size": 3072,
  "layer_norm_eps": 1e-12,
  "max_position_embeddings": 512,
  "model_type": "bert",
  "num_attention_heads": 12,
  "num_hidden_layers": 12,
  "num_labels": 2,
  "output_attentions": false,
  "output_hidden_states": true,
  "output_past": true,
  "pad_token_id": 0,
  "pruned_heads": {},
  "torchscript": false,
  "type_vocab_size": 2,
  "use_bfloat16": false,
  "vocab_size": 28996
}

BiLSTMTaggerModel initialize with GPU!
BiLSTMTaggerModel(
  (word_embedding): Embedding(41142, 300, padding_idx=0)
  (char_embedding): Embedding(98, 8, padding_idx=0)
  (pos_embedding): Embedding(46, 100, padding_idx=0)
  (char_cnns): ModuleList(
    (0): Conv1d(8, 50, kernel_size=(3,), stride=(1,))
    (1): Conv1d(8, 50, kernel_size=(4,), stride=(1,))
    (2): Conv1d(8, 50, kernel_size=(5,), stride=(1,))
  )
  (constituent_label_embedding): Embedding(28, 100, padding_idx=0)
  (isr_weights): ParameterList(
      (0): Parameter containing: [torch.cuda.FloatTensor of size 1 (GPU 0)]
      (1): Parameter containing: [torch.cuda.FloatTensor of size 1 (GPU 0)]
      (2): Parameter containing: [torch.cuda.FloatTensor of size 1 (GPU 0)]
  )
  (bert_input): BERT_input(
    (bert_input): Bert_Embedding(
      (bert): BertModel(
        (embeddings): BertEmbeddings(
          (word_embeddings): Embedding(28996, 768, padding_idx=0)
          (position_embeddings): Embedding(512, 768)
          (token_type_embeddings): Embedding(2, 768)
          (LayerNorm): LayerNorm((768,), eps=1e-12, elementwise_affine=True)
          (dropout): Dropout(p=0.1, inplace=False)
        )
        (encoder): BertEncoder(
          (layer): ModuleList(
            (0): BertLayer(
              (attention): BertAttention(
                (self): BertSelfAttention(
                  (query): Linear(in_features=768, out_features=768, bias=True)
                  (key): Linear(in_features=768, out_features=768, bias=True)
                  (value): Linear(in_features=768, out_features=768, bias=True)
                  (dropout): Dropout(p=0.1, inplace=False)
                )
                (output): BertSelfOutput(
                  (dense): Linear(in_features=768, out_features=768, bias=True)
                  (LayerNorm): LayerNorm((768,), eps=1e-12, elementwise_affine=True)
                  (dropout): Dropout(p=0.1, inplace=False)
                )
              )
              (intermediate): BertIntermediate(
                (dense): Linear(in_features=768, out_features=3072, bias=True)
              )
              (output): BertOutput(
                (dense): Linear(in_features=3072, out_features=768, bias=True)
                (LayerNorm): LayerNorm((768,), eps=1e-12, elementwise_affine=True)
                (dropout): Dropout(p=0.1, inplace=False)
              )
            )
            (1): BertLayer(
              (attention): BertAttention(
                (self): BertSelfAttention(
                  (query): Linear(in_features=768, out_features=768, bias=True)
                  (key): Linear(in_features=768, out_features=768, bias=True)
                  (value): Linear(in_features=768, out_features=768, bias=True)
                  (dropout): Dropout(p=0.1, inplace=False)
                )
                (output): BertSelfOutput(
                  (dense): Linear(in_features=768, out_features=768, bias=True)
                  (LayerNorm): LayerNorm((768,), eps=1e-12, elementwise_affine=True)
                  (dropout): Dropout(p=0.1, inplace=False)
                )
              )
              (intermediate): BertIntermediate(
                (dense): Linear(in_features=768, out_features=3072, bias=True)
              )
              (output): BertOutput(
                (dense): Linear(in_features=3072, out_features=768, bias=True)
                (LayerNorm): LayerNorm((768,), eps=1e-12, elementwise_affine=True)
                (dropout): Dropout(p=0.1, inplace=False)
              )
            )
            (2): BertLayer(
              (attention): BertAttention(
                (self): BertSelfAttention(
                  (query): Linear(in_features=768, out_features=768, bias=True)
                  (key): Linear(in_features=768, out_features=768, bias=True)
                  (value): Linear(in_features=768, out_features=768, bias=True)
                  (dropout): Dropout(p=0.1, inplace=False)
                )
                (output): BertSelfOutput(
                  (dense): Linear(in_features=768, out_features=768, bias=True)
                  (LayerNorm): LayerNorm((768,), eps=1e-12, elementwise_affine=True)
                  (dropout): Dropout(p=0.1, inplace=False)
                )
              )
              (intermediate): BertIntermediate(
                (dense): Linear(in_features=768, out_features=3072, bias=True)
              )
              (output): BertOutput(
                (dense): Linear(in_features=3072, out_features=768, bias=True)
                (LayerNorm): LayerNorm((768,), eps=1e-12, elementwise_affine=True)
                (dropout): Dropout(p=0.1, inplace=False)
              )
            )
            (3): BertLayer(
              (attention): BertAttention(
                (self): BertSelfAttention(
                  (query): Linear(in_features=768, out_features=768, bias=True)
                  (key): Linear(in_features=768, out_features=768, bias=True)
                  (value): Linear(in_features=768, out_features=768, bias=True)
                  (dropout): Dropout(p=0.1, inplace=False)
                )
                (output): BertSelfOutput(
                  (dense): Linear(in_features=768, out_features=768, bias=True)
                  (LayerNorm): LayerNorm((768,), eps=1e-12, elementwise_affine=True)
                  (dropout): Dropout(p=0.1, inplace=False)
                )
              )
              (intermediate): BertIntermediate(
                (dense): Linear(in_features=768, out_features=3072, bias=True)
              )
              (output): BertOutput(
                (dense): Linear(in_features=3072, out_features=768, bias=True)
                (LayerNorm): LayerNorm((768,), eps=1e-12, elementwise_affine=True)
                (dropout): Dropout(p=0.1, inplace=False)
              )
            )
            (4): BertLayer(
              (attention): BertAttention(
                (self): BertSelfAttention(
                  (query): Linear(in_features=768, out_features=768, bias=True)
                  (key): Linear(in_features=768, out_features=768, bias=True)
                  (value): Linear(in_features=768, out_features=768, bias=True)
                  (dropout): Dropout(p=0.1, inplace=False)
                )
                (output): BertSelfOutput(
                  (dense): Linear(in_features=768, out_features=768, bias=True)
                  (LayerNorm): LayerNorm((768,), eps=1e-12, elementwise_affine=True)
                  (dropout): Dropout(p=0.1, inplace=False)
                )
              )
              (intermediate): BertIntermediate(
                (dense): Linear(in_features=768, out_features=3072, bias=True)
              )
              (output): BertOutput(
                (dense): Linear(in_features=3072, out_features=768, bias=True)
                (LayerNorm): LayerNorm((768,), eps=1e-12, elementwise_affine=True)
                (dropout): Dropout(p=0.1, inplace=False)
              )
            )
            (5): BertLayer(
              (attention): BertAttention(
                (self): BertSelfAttention(
                  (query): Linear(in_features=768, out_features=768, bias=True)
                  (key): Linear(in_features=768, out_features=768, bias=True)
                  (value): Linear(in_features=768, out_features=768, bias=True)
                  (dropout): Dropout(p=0.1, inplace=False)
                )
                (output): BertSelfOutput(
                  (dense): Linear(in_features=768, out_features=768, bias=True)
                  (LayerNorm): LayerNorm((768,), eps=1e-12, elementwise_affine=True)
                  (dropout): Dropout(p=0.1, inplace=False)
                )
              )
              (intermediate): BertIntermediate(
                (dense): Linear(in_features=768, out_features=3072, bias=True)
              )
              (output): BertOutput(
                (dense): Linear(in_features=3072, out_features=768, bias=True)
                (LayerNorm): LayerNorm((768,), eps=1e-12, elementwise_affine=True)
                (dropout): Dropout(p=0.1, inplace=False)
              )
            )
            (6): BertLayer(
              (attention): BertAttention(
                (self): BertSelfAttention(
                  (query): Linear(in_features=768, out_features=768, bias=True)
                  (key): Linear(in_features=768, out_features=768, bias=True)
                  (value): Linear(in_features=768, out_features=768, bias=True)
                  (dropout): Dropout(p=0.1, inplace=False)
                )
                (output): BertSelfOutput(
                  (dense): Linear(in_features=768, out_features=768, bias=True)
                  (LayerNorm): LayerNorm((768,), eps=1e-12, elementwise_affine=True)
                  (dropout): Dropout(p=0.1, inplace=False)
                )
              )
              (intermediate): BertIntermediate(
                (dense): Linear(in_features=768, out_features=3072, bias=True)
              )
              (output): BertOutput(
                (dense): Linear(in_features=3072, out_features=768, bias=True)
                (LayerNorm): LayerNorm((768,), eps=1e-12, elementwise_affine=True)
                (dropout): Dropout(p=0.1, inplace=False)
              )
            )
            (7): BertLayer(
              (attention): BertAttention(
                (self): BertSelfAttention(
                  (query): Linear(in_features=768, out_features=768, bias=True)
                  (key): Linear(in_features=768, out_features=768, bias=True)
                  (value): Linear(in_features=768, out_features=768, bias=True)
                  (dropout): Dropout(p=0.1, inplace=False)
                )
                (output): BertSelfOutput(
                  (dense): Linear(in_features=768, out_features=768, bias=True)
                  (LayerNorm): LayerNorm((768,), eps=1e-12, elementwise_affine=True)
                  (dropout): Dropout(p=0.1, inplace=False)
                )
              )
              (intermediate): BertIntermediate(
                (dense): Linear(in_features=768, out_features=3072, bias=True)
              )
              (output): BertOutput(
                (dense): Linear(in_features=3072, out_features=768, bias=True)
                (LayerNorm): LayerNorm((768,), eps=1e-12, elementwise_affine=True)
                (dropout): Dropout(p=0.1, inplace=False)
              )
            )
            (8): BertLayer(
              (attention): BertAttention(
                (self): BertSelfAttention(
                  (query): Linear(in_features=768, out_features=768, bias=True)
                  (key): Linear(in_features=768, out_features=768, bias=True)
                  (value): Linear(in_features=768, out_features=768, bias=True)
                  (dropout): Dropout(p=0.1, inplace=False)
                )
                (output): BertSelfOutput(
                  (dense): Linear(in_features=768, out_features=768, bias=True)
                  (LayerNorm): LayerNorm((768,), eps=1e-12, elementwise_affine=True)
                  (dropout): Dropout(p=0.1, inplace=False)
                )
              )
              (intermediate): BertIntermediate(
                (dense): Linear(in_features=768, out_features=3072, bias=True)
              )
              (output): BertOutput(
                (dense): Linear(in_features=3072, out_features=768, bias=True)
                (LayerNorm): LayerNorm((768,), eps=1e-12, elementwise_affine=True)
                (dropout): Dropout(p=0.1, inplace=False)
              )
            )
            (9): BertLayer(
              (attention): BertAttention(
                (self): BertSelfAttention(
                  (query): Linear(in_features=768, out_features=768, bias=True)
                  (key): Linear(in_features=768, out_features=768, bias=True)
                  (value): Linear(in_features=768, out_features=768, bias=True)
                  (dropout): Dropout(p=0.1, inplace=False)
                )
                (output): BertSelfOutput(
                  (dense): Linear(in_features=768, out_features=768, bias=True)
                  (LayerNorm): LayerNorm((768,), eps=1e-12, elementwise_affine=True)
                  (dropout): Dropout(p=0.1, inplace=False)
                )
              )
              (intermediate): BertIntermediate(
                (dense): Linear(in_features=768, out_features=3072, bias=True)
              )
              (output): BertOutput(
                (dense): Linear(in_features=3072, out_features=768, bias=True)
                (LayerNorm): LayerNorm((768,), eps=1e-12, elementwise_affine=True)
                (dropout): Dropout(p=0.1, inplace=False)
              )
            )
            (10): BertLayer(
              (attention): BertAttention(
                (self): BertSelfAttention(
                  (query): Linear(in_features=768, out_features=768, bias=True)
                  (key): Linear(in_features=768, out_features=768, bias=True)
                  (value): Linear(in_features=768, out_features=768, bias=True)
                  (dropout): Dropout(p=0.1, inplace=False)
                )
                (output): BertSelfOutput(
                  (dense): Linear(in_features=768, out_features=768, bias=True)
                  (LayerNorm): LayerNorm((768,), eps=1e-12, elementwise_affine=True)
                  (dropout): Dropout(p=0.1, inplace=False)
                )
              )
              (intermediate): BertIntermediate(
                (dense): Linear(in_features=768, out_features=3072, bias=True)
              )
              (output): BertOutput(
                (dense): Linear(in_features=3072, out_features=768, bias=True)
                (LayerNorm): LayerNorm((768,), eps=1e-12, elementwise_affine=True)
                (dropout): Dropout(p=0.1, inplace=False)
              )
            )
            (11): BertLayer(
              (attention): BertAttention(
                (self): BertSelfAttention(
                  (query): Linear(in_features=768, out_features=768, bias=True)
                  (key): Linear(in_features=768, out_features=768, bias=True)
                  (value): Linear(in_features=768, out_features=768, bias=True)
                  (dropout): Dropout(p=0.1, inplace=False)
                )
                (output): BertSelfOutput(
                  (dense): Linear(in_features=768, out_features=768, bias=True)
                  (LayerNorm): LayerNorm((768,), eps=1e-12, elementwise_affine=True)
                  (dropout): Dropout(p=0.1, inplace=False)
                )
              )
              (intermediate): BertIntermediate(
                (dense): Linear(in_features=768, out_features=3072, bias=True)
              )
              (output): BertOutput(
                (dense): Linear(in_features=3072, out_features=768, bias=True)
                (LayerNorm): LayerNorm((768,), eps=1e-12, elementwise_affine=True)
                (dropout): Dropout(p=0.1, inplace=False)
              )
            )
          )
        )
        (pooler): BertPooler(
          (dense): Linear(in_features=768, out_features=768, bias=True)
          (activation): Tanh()
        )
      )
      (scalar_mix): ScalarMix()
    )
  )
  (cons_gcn): GraphConvLayerWRNN(
    (gcn_drop): Dropout(p=0.3, inplace=False)
    (linear_output): Linear(in_features=300, out_features=300, bias=True)
    (rnn): LSTM(1218, 200, batch_first=True, dropout=0.4, bidirectional=True)
    (rnn_drop): Dropout(p=0.4, inplace=False)
    (rnn_linear): Linear(in_features=400, out_features=300, bias=True)
    (weight_list): ModuleList(
      (0): Linear(in_features=300, out_features=100, bias=True)
      (1): Linear(in_features=400, out_features=100, bias=True)
      (2): Linear(in_features=500, out_features=100, bias=True)
    )
  )
  (dep_gcn): GraphConvLayerWRNN(
    (gcn_drop): Dropout(p=0.3, inplace=False)
    (linear_output): Linear(in_features=300, out_features=300, bias=True)
    (rnn): LSTM(1218, 200, batch_first=True, dropout=0.4, bidirectional=True)
    (rnn_drop): Dropout(p=0.4, inplace=False)
    (rnn_linear): Linear(in_features=400, out_features=300, bias=True)
    (weight_list): ModuleList(
      (0): Linear(in_features=300, out_features=150, bias=True)
      (1): Linear(in_features=450, out_features=150, bias=True)
    )
  )
  (implicit_dependency_representation): ImplicitDependencyRepresentations(
    (softmax_dep_weights): ParameterList(
        (0): Parameter containing: [torch.cuda.FloatTensor of size 1 (GPU 0)]
        (1): Parameter containing: [torch.cuda.FloatTensor of size 1 (GPU 0)]
        (2): Parameter containing: [torch.cuda.FloatTensor of size 1 (GPU 0)]
    )
    (dep_bilstm): Highway_Concat_BiLSTM(
      (lstm_project_layer): ModuleList(
        (0): Linear(in_features=600, out_features=600, bias=True)
        (1): Linear(in_features=600, out_features=600, bias=True)
      )
      (fcells): ModuleList(
        (0): MyLSTMCell(
          (linear): Linear(in_features=1518, out_features=900, bias=True)
        )
        (1): MyLSTMCell(
          (linear): Linear(in_features=900, out_features=900, bias=True)
        )
        (2): MyLSTMCell(
          (linear): Linear(in_features=900, out_features=900, bias=True)
        )
      )
      (bcells): ModuleList(
        (0): MyLSTMCell(
          (linear): Linear(in_features=1518, out_features=900, bias=True)
        )
        (1): MyLSTMCell(
          (linear): Linear(in_features=900, out_features=900, bias=True)
        )
        (2): MyLSTMCell(
          (linear): Linear(in_features=900, out_features=900, bias=True)
        )
      )
      (f_dropout): ModuleList(
        (0): DropoutLayer()
        (1): DropoutLayer()
        (2): DropoutLayer()
      )
      (b_dropout): ModuleList(
        (0): DropoutLayer()
        (1): DropoutLayer()
        (2): DropoutLayer()
      )
      (f_hidden_dropout): ModuleList(
        (0): DropoutLayer()
        (1): DropoutLayer()
…
          (0): Parameter containing: [torch.cuda.FloatTensor of size 2x300 (GPU 0)]
          (1): Parameter containing: [torch.cuda.FloatTensor of size 2x300 (GPU 0)]
          (2): Parameter containing: [torch.cuda.FloatTensor of size 2x300 (GPU 0)]
      )
      (b_initial): ParameterList(
          (0): Parameter containing: [torch.cuda.FloatTensor of size 2x300 (GPU 0)]
          (1): Parameter containing: [torch.cuda.FloatTensor of size 2x300 (GPU 0)]
          (2): Parameter containing: [torch.cuda.FloatTensor of size 2x300 (GPU 0)]
      )
    )
    (mlp_arc_dep): NonLinear(
      (linear): Linear(in_features=600, out_features=600, bias=True)
      (_activate): LeakyReLU(negative_slope=0.1)
    )
    (mlp_arc_head): NonLinear(
      (linear): Linear(in_features=600, out_features=600, bias=True)
      (_activate): LeakyReLU(negative_slope=0.1)
    )
    (arc_biaffine): Biaffine (in1_features=500, in2_features=500, out_features=1)
    (rel_biaffine): Biaffine (in1_features=100, in2_features=100, out_features=46)
  )
  (cons_bilstm): Highway_Concat_BiLSTM(
    (lstm_project_layer): ModuleList(
      (0): Linear(in_features=600, out_features=600, bias=True)
      (1): Linear(in_features=600, out_features=600, bias=True)
    )
    (fcells): ModuleList(
      (0): MyLSTMCell(
        (linear): Linear(in_features=1518, out_features=900, bias=True)
      )
      (1): MyLSTMCell(
        (linear): Linear(in_features=900, out_features=900, bias=True)
      )
      (2): MyLSTMCell(
        (linear): Linear(in_features=900, out_features=900, bias=True)
      )
    )
    (bcells): ModuleList(
      (0): MyLSTMCell(
        (linear): Linear(in_features=1518, out_features=900, bias=True)
      )
      (1): MyLSTMCell(
        (linear): Linear(in_features=900, out_features=900, bias=True)
      )
      (2): MyLSTMCell(
        (linear): Linear(in_features=900, out_features=900, bias=True)
      )
    )
    (f_dropout): ModuleList(
      (0): DropoutLayer()
      (1): DropoutLayer()
      (2): DropoutLayer()
    )
    (b_dropout): ModuleList(
      (0): DropoutLayer()
      (1): DropoutLayer()
      (2): DropoutLayer()
    )
    (f_hidden_dropout): ModuleList(
      (0): DropoutLayer()
      (1): DropoutLayer()
      (2): DropoutLayer()
    )
…
        (0): Parameter containing: [torch.cuda.FloatTensor of size 2x300 (GPU 0)]
        (1): Parameter containing: [torch.cuda.FloatTensor of size 2x300 (GPU 0)]
        (2): Parameter containing: [torch.cuda.FloatTensor of size 2x300 (GPU 0)]
    )
    (b_initial): ParameterList(
        (0): Parameter containing: [torch.cuda.FloatTensor of size 2x300 (GPU 0)]
        (1): Parameter containing: [torch.cuda.FloatTensor of size 2x300 (GPU 0)]
        (2): Parameter containing: [torch.cuda.FloatTensor of size 2x300 (GPU 0)]
    )
  )
  (bilstm): Highway_Concat_BiLSTM(
    (lstm_project_layer): ModuleList(
      (0): Linear(in_features=600, out_features=600, bias=True)
    )
    (fcells): ModuleList(
      (0): MyLSTMCell(
        (linear): Linear(in_features=1518, out_features=900, bias=True)
      )
      (1): MyLSTMCell(
        (linear): Linear(in_features=900, out_features=900, bias=True)
      )
    )
    (bcells): ModuleList(
      (0): MyLSTMCell(
        (linear): Linear(in_features=1518, out_features=900, bias=True)
      )
      (1): MyLSTMCell(
        (linear): Linear(in_features=900, out_features=900, bias=True)
      )
    )
    (f_dropout): ModuleList(
      (0): DropoutLayer()
      (1): DropoutLayer()
    )
    (b_dropout): ModuleList(
      (0): DropoutLayer()
      (1): DropoutLayer()
    )
    (f_hidden_dropout): ModuleList(
      (0): DropoutLayer()
      (1): DropoutLayer()
    )
    (b_hidden_dropout): ModuleList(
      (0): DropoutLayer()
      (1): DropoutLayer()
    )
    (f_initial): ParameterList(
        (0): Parameter containing: [torch.cuda.FloatTensor of size 2x300 (GPU 0)]
        (1): Parameter containing: [torch.cuda.FloatTensor of size 2x300 (GPU 0)]
    )
    (b_initial): ParameterList(
        (0): Parameter containing: [torch.cuda.FloatTensor of size 2x300 (GPU 0)]
        (1): Parameter containing: [torch.cuda.FloatTensor of size 2x300 (GPU 0)]
    )
  )
  (dse_start_scorer): MLPRepScorer(
    (rep_layer): Linear(in_features=600, out_features=200, bias=True)
    (dropout_layer): Dropout(p=0.3, inplace=False)
    (scorer): Linear(in_features=200, out_features=2, bias=True)
  )
  (dse_end_scorer): MLPRepScorer(
    (rep_layer): Linear(in_features=600, out_features=200, bias=True)
    (dropout_layer): Dropout(p=0.3, inplace=False)
    (scorer): Linear(in_features=200, out_features=2, bias=True)
  )
  (dse_reps_0): Linear(in_features=600, out_features=300, bias=False)
  (dse_reps_drop_0): Dropout(p=0.3, inplace=False)
  (dse_reps): Linear(in_features=600, out_features=400, bias=True)
  (dse_reps_drop): Dropout(p=0.3, inplace=False)
  (dse_unary_score_layers): ModuleList(
    (0): Linear(in_features=400, out_features=150, bias=True)
  )
  (dse_dropout_layers): ModuleList(
    (0): Dropout(p=0.3, inplace=False)
  )
  (dse_unary_score_projection): Linear(in_features=150, out_features=2, bias=True)
  (arg_start_scorer): MLPRepScorer(
    (rep_layer): Linear(in_features=600, out_features=200, bias=True)
    (dropout_layer): Dropout(p=0.3, inplace=False)
    (scorer): Linear(in_features=200, out_features=2, bias=True)
  )
  (arg_end_scorer): MLPRepScorer(
    (rep_layer): Linear(in_features=600, out_features=200, bias=True)
    (dropout_layer): Dropout(p=0.3, inplace=False)
    (scorer): Linear(in_features=200, out_features=2, bias=True)
  )
  (argu_reps_0): Linear(in_features=600, out_features=300, bias=False)
  (argu_reps_drop_0): Dropout(p=0.3, inplace=False)
  (argu_reps): Linear(in_features=600, out_features=400, bias=True)
  (argu_reps_drop): Dropout(p=0.3, inplace=False)
  (arg_unary_score_layers): ModuleList(
    (0): Linear(in_features=400, out_features=150, bias=True)
  )
  (arg_dropout_layers): ModuleList(
    (0): Dropout(p=0.3, inplace=False)
  )
  (arg_unary_score_projection): Linear(in_features=150, out_features=2, bias=True)
  (srl_unary_score_layers): ModuleList(
    (0): Linear(in_features=800, out_features=150, bias=True)
  )
  (srl_dropout_layers): ModuleList(
    (0): Dropout(p=0.3, inplace=False)
  )
  (srl_unary_score_projection): Linear(in_features=150, out_features=2, bias=True)
  (cons_classifier): SpanClassifier(
    (left_boundary): MLPRepScorer(
      (rep_layer): Linear(in_features=600, out_features=200, bias=True)
      (dropout_layer): Dropout(p=0.3, inplace=False)
      (scorer): Linear(in_features=200, out_features=2, bias=True)
    )
    (right_boundary): MLPRepScorer(
      (rep_layer): Linear(in_features=600, out_features=200, bias=True)
      (dropout_layer): Dropout(p=0.3, inplace=False)
      (scorer): Linear(in_features=200, out_features=2, bias=True)
    )
    (span_reps_0): Linear(in_features=600, out_features=300, bias=False)
    (span_reps_drop_0): Dropout(p=0.3, inplace=False)
  )
  (cons_reps): Linear(in_features=600, out_features=400, bias=True)
  (cons_reps_drop): Dropout(p=0.3, inplace=False)
  (cons_unary_score_layers): ModuleList(
    (0): Linear(in_features=400, out_features=150, bias=True)
  )
  (cons_dropout_layers): ModuleList(
    (0): Dropout(p=0.3, inplace=False)
  )
  (cons_unary_score_projection): Linear(in_features=150, out_features=27, bias=True)
)
Building NN model duration was 0:00:14.
Total 2448 training samples
Extracted 2448 samples and 101 batches.
After mixture, total 101 batched samples
Evaluating
========== Evaluating ==========
---------- DSE ARG ORL Info ----------
DSE num of (matched, sys, and gold) 1290 6943 1509
ARG num of (matched, sys, and gold) 1288 3216 2323
ORL num pf (matched, sys, and gold) 563 1252 1370
…
